WARNING: Logging before InitGoogleLogging() is written to STDERR
I0223 15:47:55.840566 18196 net.cpp:49] Initializing net from parameters: 
name: "ZF"
input: "data"
input: "im_info"
state {
  phase: TEST
}
input_shape {
  dim: 1
  dim: 2
  dim: 224
  dim: 224
}
input_shape {
  dim: 1
  dim: 2
}
layer {
  name: "conv1"
  type: "Convolution"
  bottom: "data"
  top: "conv1"
  convolution_param {
    num_output: 96
    pad: 3
    kernel_size: 7
    stride: 2
  }
}
layer {
  name: "relu1"
  type: "ReLU"
  bottom: "conv1"
  top: "conv1"
}
layer {
  name: "norm1"
  type: "LRN"
  bottom: "conv1"
  top: "norm1"
  lrn_param {
    local_size: 3
    alpha: 5e-05
    beta: 0.75
    norm_region: WITHIN_CHANNEL
    engine: CAFFE
  }
}
layer {
  name: "pool1"
  type: "Pooling"
  bottom: "norm1"
  top: "pool1"
  pooling_param {
    pool: MAX
    kernel_size: 3
    stride: 2
    pad: 1
  }
}
layer {
  name: "conv2"
  type: "Convolution"
  bottom: "pool1"
  top: "conv2"
  convolution_param {
    num_output: 256
    pad: 2
    kernel_size: 5
    stride: 2
  }
}
layer {
  name: "relu2"
  type: "ReLU"
  bottom: "conv2"
  top: "conv2"
}
layer {
  name: "norm2"
  type: "LRN"
  bottom: "conv2"
  top: "norm2"
  lrn_param {
    local_size: 3
    alpha: 5e-05
    beta: 0.75
    norm_region: WITHIN_CHANNEL
    engine: CAFFE
  }
}
layer {
  name: "pool2"
  type: "Pooling"
  bottom: "norm2"
  top: "pool2"
  pooling_param {
    pool: MAX
    kernel_size: 3
    stride: 2
    pad: 1
  }
}
layer {
  name: "conv3"
  type: "Convolution"
  bottom: "pool2"
  top: "conv3"
  convolution_param {
    num_output: 384
    pad: 1
    kernel_size: 3
    stride: 1
  }
}
layer {
  name: "relu3"
  type: "ReLU"
  bottom: "conv3"
  top: "conv3"
}
layer {
  name: "conv4"
  type: "Convolution"
  bottom: "conv3"
  top: "conv4"
  convolution_param {
    num_output: 384
    pad: 1
    kernel_size: 3
    stride: 1
  }
}
layer {
  name: "relu4"
  type: "ReLU"
  bottom: "conv4"
  top: "conv4"
}
layer {
  name: "conv5"
  type: "Convolution"
  bottom: "conv4"
  top: "conv5"
  convolution_param {
    num_output: 256
    pad: 1
    kernel_size: 3
    stride: 1
  }
}
layer {
  name: "relu5"
  type: "ReLU"
  bottom: "conv5"
  top: "conv5"
}
layer {
  name: "rpn_conv/3x3"
  type: "Convolution"
  bottom: "conv5"
  top: "rpn/output"
  convolution_param {
    num_output: 256
    pad: 1
    kernel_size: 3
    stride: 1
    weight_filler {
      type: "gaussian"
      std: 0.01
    }
    bias_filler {
      type: "constant"
      value: 0
    }
  }
}
layer {
  name: "rpn_relu/3x3"
  type: "ReLU"
  bottom: "rpn/output"
  top: "rpn/output"
}
layer {
  name: "rpn_cls_score"
  type: "Convolution"
  bottom: "rpn/output"
  top: "rpn_cls_score"
  convolution_param {
    num_output: 18
    pad: 0
    kernel_size: 1
    stride: 1
    weight_filler {
      type: "gaussian"
      std: 0.01
    }
    bias_filler {
      type: "constant"
      value: 0
    }
  }
}
layer {
  name: "rpn_bbox_pred"
  type: "Convolution"
  bottom: "rpn/output"
  top: "rpn_bbox_pred"
  convolution_param {
    num_output: 36
    pad: 0
    kernel_size: 1
    stride: 1
    weight_filler {
      type: "gaussian"
      std: 0.01
    }
    bias_filler {
      type: "constant"
      value: 0
    }
  }
}
layer {
  name: "rpn_cls_score_reshape"
  type: "Reshape"
  bottom: "rpn_cls_score"
  top: "rpn_cls_score_reshape"
  reshape_param {
    shape {
      dim: 0
      dim: 2
      dim: -1
      dim: 0
    }
  }
}
layer {
  name: "rpn_cls_prob"
  type: "Softmax"
  bottom: "rpn_cls_score_reshape"
  top: "rpn_cls_prob"
}
layer {
  name: "rpn_cls_prob_reshape"
  type: "Reshape"
  bottom: "rpn_cls_prob"
  top: "rpn_cls_prob_reshape"
  reshape_param {
    shape {
      dim: 0
      dim: 18
      dim: -1
      dim: 0
    }
  }
}
layer {
  name: "proposal"
  type: "Python"
  bottom: "rpn_cls_prob_reshape"
  bottom: "rpn_bbox_pred"
  bottom: "im_info"
  top: "rois"
  python_param {
    module: "rpn.proposal_layer"
    layer: "ProposalLayer"
    param_str: "\'feat_stride\': 16"
  }
}
layer {
  name: "roi_pool_conv5"
  type: "ROIPooling"
  bottom: "conv5"
  bottom: "rois"
  top: "roi_pool_conv5"
  roi_pooling_param {
    pooled_h: 6
    pooled_w: 6
    spatial_scale: 0.0625
  }
}
layer {
  name: "fc6"
  type: "InnerProduct"
  bottom: "roi_pool_conv5"
  top: "fc6"
  inner_product_param {
    num_output: 4096
  }
}
layer {
  name: "relu6"
  type: "ReLU"
  bottom: "fc6"
  top: "fc6"
}
layer {
  name: "drop6"
  type: "Dropout"
  bottom: "fc6"
  top: "fc6"
  dropout_param {
    dropout_ratio: 0.5
    scale_train: false
  }
}
layer {
  name: "fc7"
  type: "InnerProduct"
  bottom: "fc6"
  top: "fc7"
  inner_product_param {
    num_output: 4096
  }
}
layer {
  name: "relu7"
  type: "ReLU"
  bottom: "fc7"
  top: "fc7"
}
layer {
  name: "drop7"
  type: "Dropout"
  bottom: "fc7"
  top: "fc7"
  dropout_param {
    dropout_ratio: 0.5
    scale_train: false
  }
}
layer {
  name: "cls_score"
  type: "InnerProduct"
  bottom: "fc7"
  top: "cls_score"
  inner_product_param {
    num_output: 21
  }
}
layer {
  name: "bbox_pred"
  type: "InnerProduct"
  bottom: "fc7"
  top: "bbox_pred"
  inner_product_param {
    num_output: 84
  }
}
layer {
  name: "cls_prob"
  type: "Softmax"
  bottom: "cls_score"
  top: "cls_prob"
  loss_param {
    ignore_label: -1
    normalize: true
  }
}
I0223 15:47:55.840682 18196 net.cpp:413] Input 0 -> data
I0223 15:50:12.288650 18196 net.cpp:413] Input 1 -> im_info
I0223 15:50:12.288709 18196 layer_factory.hpp:77] Creating layer conv1
I0223 15:50:12.288744 18196 net.cpp:106] Creating Layer conv1
I0223 15:50:12.288748 18196 net.cpp:454] conv1 <- data
I0223 15:50:12.288756 18196 net.cpp:411] conv1 -> conv1
I0223 15:50:12.708451 18196 net.cpp:150] Setting up conv1
I0223 15:50:12.708482 18196 net.cpp:157] Top shape: 1 96 112 112 (1204224)
I0223 15:50:12.708485 18196 net.cpp:165] Memory required for data: 4816896
I0223 15:50:12.708503 18196 layer_factory.hpp:77] Creating layer relu1
I0223 15:50:12.708515 18196 net.cpp:106] Creating Layer relu1
I0223 15:50:12.708521 18196 net.cpp:454] relu1 <- conv1
I0223 15:50:12.708537 18196 net.cpp:397] relu1 -> conv1 (in-place)
I0223 15:50:12.708712 18196 net.cpp:150] Setting up relu1
I0223 15:50:12.708719 18196 net.cpp:157] Top shape: 1 96 112 112 (1204224)
I0223 15:50:12.708732 18196 net.cpp:165] Memory required for data: 9633792
I0223 15:50:12.708734 18196 layer_factory.hpp:77] Creating layer norm1
I0223 15:50:12.708744 18196 net.cpp:106] Creating Layer norm1
I0223 15:50:12.708745 18196 net.cpp:454] norm1 <- conv1
I0223 15:50:12.708750 18196 net.cpp:411] norm1 -> norm1
I0223 15:50:12.708866 18196 net.cpp:150] Setting up norm1
I0223 15:50:12.708873 18196 net.cpp:157] Top shape: 1 96 112 112 (1204224)
I0223 15:50:12.708884 18196 net.cpp:165] Memory required for data: 14450688
I0223 15:50:12.708887 18196 layer_factory.hpp:77] Creating layer pool1
I0223 15:50:12.708891 18196 net.cpp:106] Creating Layer pool1
I0223 15:50:12.708894 18196 net.cpp:454] pool1 <- norm1
I0223 15:50:12.708897 18196 net.cpp:411] pool1 -> pool1
I0223 15:50:12.708931 18196 net.cpp:150] Setting up pool1
I0223 15:50:12.708935 18196 net.cpp:157] Top shape: 1 96 57 57 (311904)
I0223 15:50:12.708937 18196 net.cpp:165] Memory required for data: 15698304
I0223 15:50:12.708950 18196 layer_factory.hpp:77] Creating layer conv2
I0223 15:50:12.708957 18196 net.cpp:106] Creating Layer conv2
I0223 15:50:12.708961 18196 net.cpp:454] conv2 <- pool1
I0223 15:50:12.708963 18196 net.cpp:411] conv2 -> conv2
I0223 15:50:12.711081 18196 net.cpp:150] Setting up conv2
I0223 15:50:12.711099 18196 net.cpp:157] Top shape: 1 256 29 29 (215296)
I0223 15:50:12.711102 18196 net.cpp:165] Memory required for data: 16559488
I0223 15:50:12.711112 18196 layer_factory.hpp:77] Creating layer relu2
I0223 15:50:12.711119 18196 net.cpp:106] Creating Layer relu2
I0223 15:50:12.711122 18196 net.cpp:454] relu2 <- conv2
I0223 15:50:12.711127 18196 net.cpp:397] relu2 -> conv2 (in-place)
I0223 15:50:12.711406 18196 net.cpp:150] Setting up relu2
I0223 15:50:12.711416 18196 net.cpp:157] Top shape: 1 256 29 29 (215296)
I0223 15:50:12.711431 18196 net.cpp:165] Memory required for data: 17420672
I0223 15:50:12.711434 18196 layer_factory.hpp:77] Creating layer norm2
I0223 15:50:12.711449 18196 net.cpp:106] Creating Layer norm2
I0223 15:50:12.711452 18196 net.cpp:454] norm2 <- conv2
I0223 15:50:12.711457 18196 net.cpp:411] norm2 -> norm2
I0223 15:50:12.711562 18196 net.cpp:150] Setting up norm2
I0223 15:50:12.711568 18196 net.cpp:157] Top shape: 1 256 29 29 (215296)
I0223 15:50:12.711580 18196 net.cpp:165] Memory required for data: 18281856
I0223 15:50:12.711583 18196 layer_factory.hpp:77] Creating layer pool2
I0223 15:50:12.711588 18196 net.cpp:106] Creating Layer pool2
I0223 15:50:12.711591 18196 net.cpp:454] pool2 <- norm2
I0223 15:50:12.711594 18196 net.cpp:411] pool2 -> pool2
I0223 15:50:12.711627 18196 net.cpp:150] Setting up pool2
I0223 15:50:12.711632 18196 net.cpp:157] Top shape: 1 256 15 15 (57600)
I0223 15:50:12.711633 18196 net.cpp:165] Memory required for data: 18512256
I0223 15:50:12.711645 18196 layer_factory.hpp:77] Creating layer conv3
I0223 15:50:12.711653 18196 net.cpp:106] Creating Layer conv3
I0223 15:50:12.711657 18196 net.cpp:454] conv3 <- pool2
I0223 15:50:12.711659 18196 net.cpp:411] conv3 -> conv3
I0223 15:50:12.713879 18196 net.cpp:150] Setting up conv3
I0223 15:50:12.713898 18196 net.cpp:157] Top shape: 1 384 15 15 (86400)
I0223 15:50:12.713901 18196 net.cpp:165] Memory required for data: 18857856
I0223 15:50:12.713912 18196 layer_factory.hpp:77] Creating layer relu3
I0223 15:50:12.713918 18196 net.cpp:106] Creating Layer relu3
I0223 15:50:12.713922 18196 net.cpp:454] relu3 <- conv3
I0223 15:50:12.713927 18196 net.cpp:397] relu3 -> conv3 (in-place)
I0223 15:50:12.714105 18196 net.cpp:150] Setting up relu3
I0223 15:50:12.714112 18196 net.cpp:157] Top shape: 1 384 15 15 (86400)
I0223 15:50:12.714125 18196 net.cpp:165] Memory required for data: 19203456
I0223 15:50:12.714128 18196 layer_factory.hpp:77] Creating layer conv4
I0223 15:50:12.714134 18196 net.cpp:106] Creating Layer conv4
I0223 15:50:12.714138 18196 net.cpp:454] conv4 <- conv3
I0223 15:50:12.714141 18196 net.cpp:411] conv4 -> conv4
I0223 15:50:12.717061 18196 net.cpp:150] Setting up conv4
I0223 15:50:12.717087 18196 net.cpp:157] Top shape: 1 384 15 15 (86400)
I0223 15:50:12.717092 18196 net.cpp:165] Memory required for data: 19549056
I0223 15:50:12.717099 18196 layer_factory.hpp:77] Creating layer relu4
I0223 15:50:12.717108 18196 net.cpp:106] Creating Layer relu4
I0223 15:50:12.717111 18196 net.cpp:454] relu4 <- conv4
I0223 15:50:12.717118 18196 net.cpp:397] relu4 -> conv4 (in-place)
I0223 15:50:12.717267 18196 net.cpp:150] Setting up relu4
I0223 15:50:12.717274 18196 net.cpp:157] Top shape: 1 384 15 15 (86400)
I0223 15:50:12.717288 18196 net.cpp:165] Memory required for data: 19894656
I0223 15:50:12.717289 18196 layer_factory.hpp:77] Creating layer conv5
I0223 15:50:12.717298 18196 net.cpp:106] Creating Layer conv5
I0223 15:50:12.717299 18196 net.cpp:454] conv5 <- conv4
I0223 15:50:12.717304 18196 net.cpp:411] conv5 -> conv5
I0223 15:50:12.719405 18196 net.cpp:150] Setting up conv5
I0223 15:50:12.719422 18196 net.cpp:157] Top shape: 1 256 15 15 (57600)
I0223 15:50:12.719424 18196 net.cpp:165] Memory required for data: 20125056
I0223 15:50:12.719435 18196 layer_factory.hpp:77] Creating layer relu5
I0223 15:50:12.719441 18196 net.cpp:106] Creating Layer relu5
I0223 15:50:12.719444 18196 net.cpp:454] relu5 <- conv5
I0223 15:50:12.719449 18196 net.cpp:397] relu5 -> conv5 (in-place)
I0223 15:50:12.719714 18196 net.cpp:150] Setting up relu5
I0223 15:50:12.719733 18196 net.cpp:157] Top shape: 1 256 15 15 (57600)
I0223 15:50:12.719736 18196 net.cpp:165] Memory required for data: 20355456
I0223 15:50:12.719739 18196 layer_factory.hpp:77] Creating layer conv5_relu5_0_split
I0223 15:50:12.719758 18196 net.cpp:106] Creating Layer conv5_relu5_0_split
I0223 15:50:12.719769 18196 net.cpp:454] conv5_relu5_0_split <- conv5
I0223 15:50:12.719774 18196 net.cpp:411] conv5_relu5_0_split -> conv5_relu5_0_split_0
I0223 15:50:12.719779 18196 net.cpp:411] conv5_relu5_0_split -> conv5_relu5_0_split_1
I0223 15:50:12.719846 18196 net.cpp:150] Setting up conv5_relu5_0_split
I0223 15:50:12.719851 18196 net.cpp:157] Top shape: 1 256 15 15 (57600)
I0223 15:50:12.719854 18196 net.cpp:157] Top shape: 1 256 15 15 (57600)
I0223 15:50:12.719857 18196 net.cpp:165] Memory required for data: 20816256
I0223 15:50:12.719859 18196 layer_factory.hpp:77] Creating layer rpn_conv/3x3
I0223 15:50:12.719867 18196 net.cpp:106] Creating Layer rpn_conv/3x3
I0223 15:50:12.719869 18196 net.cpp:454] rpn_conv/3x3 <- conv5_relu5_0_split_0
I0223 15:50:12.719873 18196 net.cpp:411] rpn_conv/3x3 -> rpn/output
I0223 15:50:12.736513 18196 net.cpp:150] Setting up rpn_conv/3x3
I0223 15:50:12.736529 18196 net.cpp:157] Top shape: 1 256 15 15 (57600)
I0223 15:50:12.736532 18196 net.cpp:165] Memory required for data: 21046656
I0223 15:50:12.736539 18196 layer_factory.hpp:77] Creating layer rpn_relu/3x3
I0223 15:50:12.736548 18196 net.cpp:106] Creating Layer rpn_relu/3x3
I0223 15:50:12.736552 18196 net.cpp:454] rpn_relu/3x3 <- rpn/output
I0223 15:50:12.736557 18196 net.cpp:397] rpn_relu/3x3 -> rpn/output (in-place)
I0223 15:50:12.736728 18196 net.cpp:150] Setting up rpn_relu/3x3
I0223 15:50:12.736735 18196 net.cpp:157] Top shape: 1 256 15 15 (57600)
I0223 15:50:12.736748 18196 net.cpp:165] Memory required for data: 21277056
I0223 15:50:12.736750 18196 layer_factory.hpp:77] Creating layer rpn/output_rpn_relu/3x3_0_split
I0223 15:50:12.736755 18196 net.cpp:106] Creating Layer rpn/output_rpn_relu/3x3_0_split
I0223 15:50:12.736757 18196 net.cpp:454] rpn/output_rpn_relu/3x3_0_split <- rpn/output
I0223 15:50:12.736762 18196 net.cpp:411] rpn/output_rpn_relu/3x3_0_split -> rpn/output_rpn_relu/3x3_0_split_0
I0223 15:50:12.736766 18196 net.cpp:411] rpn/output_rpn_relu/3x3_0_split -> rpn/output_rpn_relu/3x3_0_split_1
I0223 15:50:12.736820 18196 net.cpp:150] Setting up rpn/output_rpn_relu/3x3_0_split
I0223 15:50:12.736824 18196 net.cpp:157] Top shape: 1 256 15 15 (57600)
I0223 15:50:12.736836 18196 net.cpp:157] Top shape: 1 256 15 15 (57600)
I0223 15:50:12.736838 18196 net.cpp:165] Memory required for data: 21737856
I0223 15:50:12.736840 18196 layer_factory.hpp:77] Creating layer rpn_cls_score
I0223 15:50:12.736857 18196 net.cpp:106] Creating Layer rpn_cls_score
I0223 15:50:12.736860 18196 net.cpp:454] rpn_cls_score <- rpn/output_rpn_relu/3x3_0_split_0
I0223 15:50:12.736865 18196 net.cpp:411] rpn_cls_score -> rpn_cls_score
I0223 15:50:12.737895 18196 net.cpp:150] Setting up rpn_cls_score
I0223 15:50:12.737905 18196 net.cpp:157] Top shape: 1 18 15 15 (4050)
I0223 15:50:12.737907 18196 net.cpp:165] Memory required for data: 21754056
I0223 15:50:12.737913 18196 layer_factory.hpp:77] Creating layer rpn_bbox_pred
I0223 15:50:12.737920 18196 net.cpp:106] Creating Layer rpn_bbox_pred
I0223 15:50:12.737923 18196 net.cpp:454] rpn_bbox_pred <- rpn/output_rpn_relu/3x3_0_split_1
I0223 15:50:12.737928 18196 net.cpp:411] rpn_bbox_pred -> rpn_bbox_pred
I0223 15:50:12.738967 18196 net.cpp:150] Setting up rpn_bbox_pred
I0223 15:50:12.738977 18196 net.cpp:157] Top shape: 1 36 15 15 (8100)
I0223 15:50:12.738981 18196 net.cpp:165] Memory required for data: 21786456
I0223 15:50:12.738986 18196 layer_factory.hpp:77] Creating layer rpn_cls_score_reshape
I0223 15:50:12.738996 18196 net.cpp:106] Creating Layer rpn_cls_score_reshape
I0223 15:50:12.738998 18196 net.cpp:454] rpn_cls_score_reshape <- rpn_cls_score
I0223 15:50:12.739003 18196 net.cpp:411] rpn_cls_score_reshape -> rpn_cls_score_reshape
I0223 15:50:12.739039 18196 net.cpp:150] Setting up rpn_cls_score_reshape
I0223 15:50:12.739045 18196 net.cpp:157] Top shape: 1 2 135 15 (4050)
I0223 15:50:12.739048 18196 net.cpp:165] Memory required for data: 21802656
I0223 15:50:12.739050 18196 layer_factory.hpp:77] Creating layer rpn_cls_prob
I0223 15:50:12.739055 18196 net.cpp:106] Creating Layer rpn_cls_prob
I0223 15:50:12.739068 18196 net.cpp:454] rpn_cls_prob <- rpn_cls_score_reshape
I0223 15:50:12.739073 18196 net.cpp:411] rpn_cls_prob -> rpn_cls_prob
I0223 15:50:12.739354 18196 net.cpp:150] Setting up rpn_cls_prob
I0223 15:50:12.739363 18196 net.cpp:157] Top shape: 1 2 135 15 (4050)
I0223 15:50:12.739377 18196 net.cpp:165] Memory required for data: 21818856
I0223 15:50:12.739378 18196 layer_factory.hpp:77] Creating layer rpn_cls_prob_reshape
I0223 15:50:12.739383 18196 net.cpp:106] Creating Layer rpn_cls_prob_reshape
I0223 15:50:12.739387 18196 net.cpp:454] rpn_cls_prob_reshape <- rpn_cls_prob
I0223 15:50:12.739392 18196 net.cpp:411] rpn_cls_prob_reshape -> rpn_cls_prob_reshape
I0223 15:50:12.739410 18196 net.cpp:150] Setting up rpn_cls_prob_reshape
I0223 15:50:12.739415 18196 net.cpp:157] Top shape: 1 18 15 15 (4050)
I0223 15:50:12.739426 18196 net.cpp:165] Memory required for data: 21835056
I0223 15:50:12.739429 18196 layer_factory.hpp:77] Creating layer proposal
I0223 15:50:12.739845 18196 net.cpp:106] Creating Layer proposal
I0223 15:50:12.739855 18196 net.cpp:454] proposal <- rpn_cls_prob_reshape
I0223 15:50:12.739859 18196 net.cpp:454] proposal <- rpn_bbox_pred
I0223 15:50:12.739862 18196 net.cpp:454] proposal <- im_info
I0223 15:50:12.739866 18196 net.cpp:411] proposal -> rois
I0223 15:50:12.740455 18196 net.cpp:150] Setting up proposal
I0223 15:50:12.740466 18196 net.cpp:157] Top shape: 1 5 (5)
I0223 15:50:12.740469 18196 net.cpp:165] Memory required for data: 21835076
I0223 15:50:12.740473 18196 layer_factory.hpp:77] Creating layer roi_pool_conv5
I0223 15:50:12.740478 18196 net.cpp:106] Creating Layer roi_pool_conv5
I0223 15:50:12.740481 18196 net.cpp:454] roi_pool_conv5 <- conv5_relu5_0_split_1
I0223 15:50:12.740485 18196 net.cpp:454] roi_pool_conv5 <- rois
I0223 15:50:12.740489 18196 net.cpp:411] roi_pool_conv5 -> roi_pool_conv5
I0223 15:50:12.740509 18196 roi_pooling_layer.cpp:30] Spatial scale: 0.0625
I0223 15:50:12.740578 18196 net.cpp:150] Setting up roi_pool_conv5
I0223 15:50:12.740583 18196 net.cpp:157] Top shape: 1 256 6 6 (9216)
I0223 15:50:12.740597 18196 net.cpp:165] Memory required for data: 21871940
I0223 15:50:12.740598 18196 layer_factory.hpp:77] Creating layer fc6
I0223 15:50:12.740603 18196 net.cpp:106] Creating Layer fc6
I0223 15:50:12.740607 18196 net.cpp:454] fc6 <- roi_pool_conv5
I0223 15:50:12.740610 18196 net.cpp:411] fc6 -> fc6
I0223 15:50:12.802613 18196 net.cpp:150] Setting up fc6
I0223 15:50:12.802644 18196 net.cpp:157] Top shape: 1 4096 (4096)
I0223 15:50:12.802646 18196 net.cpp:165] Memory required for data: 21888324
I0223 15:50:12.802661 18196 layer_factory.hpp:77] Creating layer relu6
I0223 15:50:12.802671 18196 net.cpp:106] Creating Layer relu6
I0223 15:50:12.802675 18196 net.cpp:454] relu6 <- fc6
I0223 15:50:12.802680 18196 net.cpp:397] relu6 -> fc6 (in-place)
I0223 15:50:12.803040 18196 net.cpp:150] Setting up relu6
I0223 15:50:12.803048 18196 net.cpp:157] Top shape: 1 4096 (4096)
I0223 15:50:12.803061 18196 net.cpp:165] Memory required for data: 21904708
I0223 15:50:12.803064 18196 layer_factory.hpp:77] Creating layer drop6
I0223 15:50:12.803074 18196 net.cpp:106] Creating Layer drop6
I0223 15:50:12.803086 18196 net.cpp:454] drop6 <- fc6
I0223 15:50:12.803093 18196 net.cpp:397] drop6 -> fc6 (in-place)
I0223 15:50:12.803146 18196 net.cpp:150] Setting up drop6
I0223 15:50:12.803151 18196 net.cpp:157] Top shape: 1 4096 (4096)
I0223 15:50:12.803154 18196 net.cpp:165] Memory required for data: 21921092
I0223 15:50:12.803156 18196 layer_factory.hpp:77] Creating layer fc7
I0223 15:50:12.803161 18196 net.cpp:106] Creating Layer fc7
I0223 15:50:12.803164 18196 net.cpp:454] fc7 <- fc6
I0223 15:50:12.803169 18196 net.cpp:411] fc7 -> fc7
I0223 15:50:12.830773 18196 net.cpp:150] Setting up fc7
I0223 15:50:12.830806 18196 net.cpp:157] Top shape: 1 4096 (4096)
I0223 15:50:12.830808 18196 net.cpp:165] Memory required for data: 21937476
I0223 15:50:12.830818 18196 layer_factory.hpp:77] Creating layer relu7
I0223 15:50:12.830827 18196 net.cpp:106] Creating Layer relu7
I0223 15:50:12.830832 18196 net.cpp:454] relu7 <- fc7
I0223 15:50:12.830837 18196 net.cpp:397] relu7 -> fc7 (in-place)
I0223 15:50:12.831058 18196 net.cpp:150] Setting up relu7
I0223 15:50:12.831066 18196 net.cpp:157] Top shape: 1 4096 (4096)
I0223 15:50:12.831079 18196 net.cpp:165] Memory required for data: 21953860
I0223 15:50:12.831081 18196 layer_factory.hpp:77] Creating layer drop7
I0223 15:50:12.831087 18196 net.cpp:106] Creating Layer drop7
I0223 15:50:12.831090 18196 net.cpp:454] drop7 <- fc7
I0223 15:50:12.831094 18196 net.cpp:397] drop7 -> fc7 (in-place)
I0223 15:50:12.831115 18196 net.cpp:150] Setting up drop7
I0223 15:50:12.831120 18196 net.cpp:157] Top shape: 1 4096 (4096)
I0223 15:50:12.831122 18196 net.cpp:165] Memory required for data: 21970244
I0223 15:50:12.831125 18196 layer_factory.hpp:77] Creating layer fc7_drop7_0_split
I0223 15:50:12.831130 18196 net.cpp:106] Creating Layer fc7_drop7_0_split
I0223 15:50:12.831131 18196 net.cpp:454] fc7_drop7_0_split <- fc7
I0223 15:50:12.831135 18196 net.cpp:411] fc7_drop7_0_split -> fc7_drop7_0_split_0
I0223 15:50:12.831141 18196 net.cpp:411] fc7_drop7_0_split -> fc7_drop7_0_split_1
I0223 15:50:12.831194 18196 net.cpp:150] Setting up fc7_drop7_0_split
I0223 15:50:12.831199 18196 net.cpp:157] Top shape: 1 4096 (4096)
I0223 15:50:12.831202 18196 net.cpp:157] Top shape: 1 4096 (4096)
I0223 15:50:12.831204 18196 net.cpp:165] Memory required for data: 22003012
I0223 15:50:12.831207 18196 layer_factory.hpp:77] Creating layer cls_score
I0223 15:50:12.831215 18196 net.cpp:106] Creating Layer cls_score
I0223 15:50:12.831218 18196 net.cpp:454] cls_score <- fc7_drop7_0_split_0
I0223 15:50:12.831223 18196 net.cpp:411] cls_score -> cls_score
I0223 15:50:12.831745 18196 net.cpp:150] Setting up cls_score
I0223 15:50:12.831754 18196 net.cpp:157] Top shape: 1 21 (21)
I0223 15:50:12.831770 18196 net.cpp:165] Memory required for data: 22003096
I0223 15:50:12.831775 18196 layer_factory.hpp:77] Creating layer bbox_pred
I0223 15:50:12.831780 18196 net.cpp:106] Creating Layer bbox_pred
I0223 15:50:12.831784 18196 net.cpp:454] bbox_pred <- fc7_drop7_0_split_1
I0223 15:50:12.831795 18196 net.cpp:411] bbox_pred -> bbox_pred
I0223 15:50:12.832474 18196 net.cpp:150] Setting up bbox_pred
I0223 15:50:12.832484 18196 net.cpp:157] Top shape: 1 84 (84)
I0223 15:50:12.832486 18196 net.cpp:165] Memory required for data: 22003432
I0223 15:50:12.832491 18196 layer_factory.hpp:77] Creating layer cls_prob
I0223 15:50:12.832496 18196 net.cpp:106] Creating Layer cls_prob
I0223 15:50:12.832499 18196 net.cpp:454] cls_prob <- cls_score
I0223 15:50:12.832504 18196 net.cpp:411] cls_prob -> cls_prob
I0223 15:50:12.832833 18196 net.cpp:150] Setting up cls_prob
I0223 15:50:12.832841 18196 net.cpp:157] Top shape: 1 21 (21)
I0223 15:50:12.832844 18196 net.cpp:165] Memory required for data: 22003516
I0223 15:50:12.832847 18196 net.cpp:228] cls_prob does not need backward computation.
I0223 15:50:12.832849 18196 net.cpp:228] bbox_pred does not need backward computation.
I0223 15:50:12.832852 18196 net.cpp:228] cls_score does not need backward computation.
I0223 15:50:12.832854 18196 net.cpp:228] fc7_drop7_0_split does not need backward computation.
…
