…
snapshot_prefix: "vgg16_faster_rcnn"
average_loss: 100
iter_size: 2
I0301 15:50:06.546864 26779 solver.cpp:81] Creating training net from train_net file: models/pascal_voc/VGG16/faster_rcnn_end2end/train.prototxt
I0301 15:50:06.547641 26779 net.cpp:58] Initializing net from parameters: 
name: "VGG_ILSVRC_16_layers"
state {
  phase: TRAIN
}
layer {
  name: "input-data"
  type: "Python"
  top: "data"
  top: "im_info"
  top: "gt_boxes"
  python_param {
    module: "roi_data_layer.layer"
    layer: "RoIDataLayer"
    param_str: "\'num_classes\': 2"
  }
}
layer {
  name: "my_conv1_1"
  type: "Convolution"
  bottom: "data"
  top: "my_conv1_1"
  param {
    lr_mult: 0
    decay_mult: 0
  }
  param {
    lr_mult: 0
    decay_mult: 0
  }
  convolution_param {
    num_output: 64
    pad: 1
    kernel_size: 3
  }
}
layer {
  name: "relu1_1"
  type: "ReLU"
  bottom: "my_conv1_1"
  top: "my_conv1_1"
}
layer {
  name: "conv1_2"
  type: "Convolution"
  bottom: "my_conv1_1"
  top: "conv1_2"
  param {
    lr_mult: 0
    decay_mult: 0
  }
  param {
    lr_mult: 0
    decay_mult: 0
  }
  convolution_param {
    num_output: 64
    pad: 1
    kernel_size: 3
  }
}
layer {
  name: "relu1_2"
  type: "ReLU"
  bottom: "conv1_2"
  top: "conv1_2"
}
layer {
  name: "pool1"
  type: "Pooling"
  bottom: "conv1_2"
  top: "pool1"
  pooling_param {
    pool: MAX
    kernel_size: 2
    stride: 2
  }
}
layer {
  name: "conv2_1"
  type: "Convolution"
  bottom: "pool1"
  top: "conv2_1"
  param {
    lr_mult: 0
    decay_mult: 0
  }
  param {
    lr_mult: 0
    decay_mult: 0
  }
  convolution_param {
    num_output: 128
    pad: 1
    kernel_size: 3
  }
}
layer {
  name: "relu2_1"
  type: "ReLU"
  bottom: "conv2_1"
  top: "conv2_1"
}
layer {
  name: "conv2_2"
  type: "Convolution"
  bottom: "conv2_1"
  top: "conv2_2"
  param {
    lr_mult: 0
    decay_mult: 0
  }
  param {
    lr_mult: 0
    decay_mult: 0
  }
  convolution_param {
    num_output: 128
    pad: 1
    kernel_size: 3
  }
}
layer {
  name: "relu2_2"
  type: "ReLU"
  bottom: "conv2_2"
  top: "conv2_2"
}
layer {
  name: "pool2"
  type: "Pooling"
  bottom: "conv2_2"
  top: "pool2"
  pooling_param {
    pool: MAX
    kernel_size: 2
    stride: 2
  }
}
layer {
  name: "conv3_1"
  type: "Convolution"
  bottom: "pool2"
  top: "conv3_1"
  param {
    lr_mult: 1
  }
  param {
    lr_mult: 2
  }
  convolution_param {
    num_output: 256
    pad: 1
    kernel_size: 3
  }
}
layer {
  name: "relu3_1"
  type: "ReLU"
  bottom: "conv3_1"
  top: "conv3_1"
}
layer {
  name: "conv3_2"
  type: "Convolution"
  bottom: "conv3_1"
  top: "conv3_2"
  param {
    lr_mult: 1
  }
  param {
    lr_mult: 2
  }
  convolution_param {
    num_output: 256
    pad: 1
    kernel_size: 3
  }
}
layer {
  name: "relu3_2"
  type: "ReLU"
  bottom: "conv3_2"
  top: "conv3_2"
}
layer {
  name: "conv3_3"
  type: "Convolution"
  bottom: "conv3_2"
  top: "conv3_3"
  param {
    lr_mult: 1
  }
  param {
    lr_mult: 2
  }
  convolution_param {
    num_output: 256
    pad: 1
    kernel_size: 3
  }
}
layer {
  name: "relu3_3"
  type: "ReLU"
  bottom: "conv3_3"
  top: "conv3_3"
}
layer {
  name: "pool3"
  type: "Pooling"
  bottom: "conv3_3"
  top: "pool3"
  pooling_param {
    pool: MAX
    kernel_size: 2
    stride: 2
  }
}
layer {
  name: "conv4_1"
  type: "Convolution"
  bottom: "pool3"
  top: "conv4_1"
  param {
    lr_mult: 1
  }
  param {
    lr_mult: 2
  }
  convolution_param {
    num_output: 512
    pad: 1
    kernel_size: 3
  }
}
layer {
  name: "relu4_1"
  type: "ReLU"
  bottom: "conv4_1"
  top: "conv4_1"
}
layer {
  name: "conv4_2"
  type: "Convolution"
  bottom: "conv4_1"
  top: "conv4_2"
  param {
    lr_mult: 1
  }
  param {
    lr_mult: 2
  }
  convolution_param {
    num_output: 512
    pad: 1
    kernel_size: 3
  }
}
layer {
  name: "relu4_2"
  type: "ReLU"
  bottom: "conv4_2"
  top: "conv4_2"
}
layer {
  name: "conv4_3"
  type: "Convolution"
  bottom: "conv4_2"
  top: "conv4_3"
  param {
    lr_mult: 1
  }
  param {
    lr_mult: 2
  }
  convolution_param {
    num_output: 512
    pad: 1
    kernel_size: 3
  }
}
layer {
  name: "relu4_3"
  type: "ReLU"
  bottom: "conv4_3"
  top: "conv4_3"
}
layer {
  name: "pool4"
  type: "Pooling"
  bottom: "conv4_3"
  top: "pool4"
  pooling_param {
    pool: MAX
    kernel_size: 2
    stride: 2
  }
}
layer {
  name: "conv5_1"
  type: "Convolution"
  bottom: "pool4"
  top: "conv5_1"
  param {
    lr_mult: 1
  }
  param {
    lr_mult: 2
  }
  convolution_param {
    num_output: 512
    pad: 1
    kernel_size: 3
  }
}
layer {
  name: "relu5_1"
  type: "ReLU"
  bottom: "conv5_1"
  top: "conv5_1"
}
layer {
  name: "conv5_2"
  type: "Convolution"
  bottom: "conv5_1"
  top: "conv5_2"
  param {
    lr_mult: 1
  }
  param {
    lr_mult: 2
  }
  convolution_param {
    num_output: 512
    pad: 1
    kernel_size: 3
  }
}
layer {
  name: "relu5_2"
  type: "ReLU"
  bottom: "conv5_2"
  top: "conv5_2"
}
layer {
  name: "conv5_3"
  type: "Convolution"
  bottom: "conv5_2"
  top: "conv5_3"
  param {
    lr_mult: 1
  }
  param {
    lr_mult: 2
  }
  convolution_param {
    num_output: 512
    pad: 1
    kernel_size: 3
  }
}
layer {
  name: "relu5_3"
  type: "ReLU"
  bottom: "conv5_3"
  top: "conv5_3"
}
layer {
  name: "rpn_conv/3x3"
  type: "Convolution"
  bottom: "conv5_3"
  top: "rpn/output"
  param {
    lr_mult: 1
  }
  param {
    lr_mult: 2
  }
  convolution_param {
    num_output: 512
    pad: 1
    kernel_size: 3
    stride: 1
    weight_filler {
      type: "gaussian"
      std: 0.01
    }
    bias_filler {
      type: "constant"
      value: 0
    }
  }
}
layer {
  name: "rpn_relu/3x3"
  type: "ReLU"
  bottom: "rpn/output"
  top: "rpn/output"
}
layer {
  name: "rpn_cls_score"
  type: "Convolution"
  bottom: "rpn/output"
  top: "rpn_cls_score"
  param {
    lr_mult: 1
  }
  param {
    lr_mult: 2
  }
  convolution_param {
    num_output: 18
    pad: 0
    kernel_size: 1
    stride: 1
    weight_filler {
      type: "gaussian"
      std: 0.01
    }
    bias_filler {
      type: "constant"
      value: 0
    }
  }
}
layer {
  name: "rpn_bbox_pred"
  type: "Convolution"
  bottom: "rpn/output"
  top: "rpn_bbox_pred"
  param {
    lr_mult: 1
  }
  param {
    lr_mult: 2
  }
  convolution_param {
    num_output: 36
    pad: 0
    kernel_size: 1
    stride: 1
    weight_filler {
      type: "gaussian"
      std: 0.01
    }
    bias_filler {
      type: "constant"
      value: 0
    }
  }
}
layer {
  name: "rpn_cls_score_reshape"
  type: "Reshape"
  bottom: "rpn_cls_score"
  top: "rpn_cls_score_reshape"
  reshape_param {
    shape {
      dim: 0
      dim: 2
      dim: -1
      dim: 0
    }
  }
}
layer {
  name: "rpn-data"
  type: "Python"
  bottom: "rpn_cls_score"
  bottom: "gt_boxes"
  bottom: "im_info"
  bottom: "data"
  top: "rpn_labels"
  top: "rpn_bbox_targets"
  top: "rpn_bbox_inside_weights"
  top: "rpn_bbox_outside_weights"
  python_param {
    module: "rpn.anchor_target_layer"
    layer: "AnchorTargetLayer"
    param_str: "\'feat_stride\': 16"
  }
}
layer {
  name: "rpn_loss_cls"
  type: "SoftmaxWithLoss"
  bottom: "rpn_cls_score_reshape"
  bottom: "rpn_labels"
  top: "rpn_cls_loss"
  loss_weight: 1
  propagate_down: true
  propagate_down: false
  loss_param {
    ignore_label: -1
    normalize: true
  }
}
layer {
  name: "rpn_loss_bbox"
  type: "SmoothL1Loss"
  bottom: "rpn_bbox_pred"
  bottom: "rpn_bbox_targets"
  bottom: "rpn_bbox_inside_weights"
  bottom: "rpn_bbox_outside_weights"
  top: "rpn_loss_bbox"
  loss_weight: 1
  smooth_l1_loss_param {
    sigma: 3
  }
}
layer {
  name: "rpn_cls_prob"
  type: "Softmax"
  bottom: "rpn_cls_score_reshape"
  top: "rpn_cls_prob"
}
layer {
  name: "rpn_cls_prob_reshape"
  type: "Reshape"
  bottom: "rpn_cls_prob"
  top: "rpn_cls_prob_reshape"
  reshape_param {
    shape {
      dim: 0
      dim: 18
      dim: -1
      dim: 0
    }
  }
}
layer {
  name: "proposal"
  type: "Python"
  bottom: "rpn_cls_prob_reshape"
  bottom: "rpn_bbox_pred"
  bottom: "im_info"
  top: "rpn_rois"
  python_param {
    module: "rpn.proposal_layer"
    layer: "ProposalLayer"
    param_str: "\'feat_stride\': 16"
  }
}
layer {
  name: "roi-data"
  type: "Python"
  bottom: "rpn_rois"
  bottom: "gt_boxes"
  top: "rois"
  top: "labels"
  top: "bbox_targets"
  top: "bbox_inside_weights"
  top: "bbox_outside_weights"
  python_param {
    module: "rpn.proposal_target_layer"
    layer: "ProposalTargetLayer"
    param_str: "\'num_classes\': 2"
  }
}
layer {
  name: "roi_pool5"
  type: "ROIPooling"
  bottom: "conv5_3"
  bottom: "rois"
  top: "pool5"
  roi_pooling_param {
    pooled_h: 7
    pooled_w: 7
    spatial_scale: 0.0625
  }
}
layer {
  name: "fc6"
  type: "InnerProduct"
  bottom: "pool5"
  top: "fc6"
  param {
    lr_mult: 1
  }
  param {
    lr_mult: 2
  }
  inner_product_param {
    num_output: 4096
  }
}
layer {
  name: "relu6"
  type: "ReLU"
  bottom: "fc6"
  top: "fc6"
}
layer {
  name: "drop6"
  type: "Dropout"
  bottom: "fc6"
  top: "fc6"
  dropout_param {
    dropout_ratio: 0.5
  }
}
layer {
  name: "fc7"
  type: "InnerProduct"
  bottom: "fc6"
  top: "fc7"
  param {
    lr_mult: 1
  }
  param {
    lr_mult: 2
  }
  inner_product_param {
    num_output: 4096
  }
}
layer {
  name: "relu7"
  type: "ReLU"
  bottom: "fc7"
  top: "fc7"
}
layer {
  name: "drop7"
  type: "Dropout"
  bottom: "fc7"
  top: "fc7"
  dropout_param {
    dropout_ratio: 0.5
  }
}
layer {
  name: "my_cls_score"
  type: "InnerProduct"
  bottom: "fc7"
  top: "my_cls_score"
  param {
    lr_mult: 1
  }
  param {
    lr_mult: 2
  }
  inner_product_param {
    num_output: 2
    weight_filler {
      type: "gaussian"
      std: 0.01
    }
    bias_filler {
      type: "constant"
      value: 0
    }
  }
}
layer {
  name: "my_bbox_pred"
  type: "InnerProduct"
  bottom: "fc7"
  top: "my_bbox_pred"
  param {
    lr_mult: 1
  }
  param {
    lr_mult: 2
  }
  inner_product_param {
    num_output: 8
    weight_filler {
      type: "gaussian"
      std: 0.001
    }
    bias_filler {
      type: "constant"
      value: 0
    }
  }
}
layer {
  name: "loss_cls"
  type: "SoftmaxWithLoss"
  bottom: "my_cls_score"
  bottom: "labels"
  top: "loss_cls"
  loss_weight: 1
  propagate_down: true
  propagate_down: false
}
layer {
  name: "my_loss_bbox"
  type: "SmoothL1Loss"
  bottom: "my_bbox_pred"
  bottom: "bbox_targets"
  bottom: "bbox_inside_weights"
  bottom: "bbox_outside_weights"
  top: "my_loss_bbox"
  loss_weight: 1
}
I0301 15:50:06.547816 26779 layer_factory.hpp:77] Creating layer input-data
I0301 15:50:06.579591 26779 net.cpp:100] Creating Layer input-data
I0301 15:50:06.579607 26779 net.cpp:418] input-data -> data
I0301 15:50:06.579615 26779 net.cpp:418] input-data -> im_info
I0301 15:50:06.579633 26779 net.cpp:418] input-data -> gt_boxes
I0301 15:50:06.591770 26779 net.cpp:150] Setting up input-data
I0301 15:50:06.591790 26779 net.cpp:157] Top shape: 1 2 600 1000 (1200000)
I0301 15:50:06.591794 26779 net.cpp:157] Top shape: 1 3 (3)
I0301 15:50:06.591797 26779 net.cpp:157] Top shape: 1 4 (4)
I0301 15:50:06.591814 26779 net.cpp:165] Memory required for data: 4800028
I0301 15:50:06.591819 26779 layer_factory.hpp:77] Creating layer data_input-data_0_split
I0301 15:50:06.591831 26779 net.cpp:100] Creating Layer data_input-data_0_split
I0301 15:50:06.591835 26779 net.cpp:444] data_input-data_0_split <- data
I0301 15:50:06.591838 26779 net.cpp:418] data_input-data_0_split -> data_input-data_0_split_0
I0301 15:50:06.591846 26779 net.cpp:418] data_input-data_0_split -> data_input-data_0_split_1
I0301 15:50:06.591871 26779 net.cpp:150] Setting up data_input-data_0_split
I0301 15:50:06.591873 26779 net.cpp:157] Top shape: 1 2 600 1000 (1200000)
I0301 15:50:06.591876 26779 net.cpp:157] Top shape: 1 2 600 1000 (1200000)
I0301 15:50:06.591878 26779 net.cpp:165] Memory required for data: 14400028
I0301 15:50:06.591881 26779 layer_factory.hpp:77] Creating layer im_info_input-data_1_split
I0301 15:50:06.591883 26779 net.cpp:100] Creating Layer im_info_input-data_1_split
I0301 15:50:06.591888 26779 net.cpp:444] im_info_input-data_1_split <- im_info
I0301 15:50:06.591907 26779 net.cpp:418] im_info_input-data_1_split -> im_info_input-data_1_split_0
I0301 15:50:06.591910 26779 net.cpp:418] im_info_input-data_1_split -> im_info_input-data_1_split_1
I0301 15:50:06.591928 26779 net.cpp:150] Setting up im_info_input-data_1_split
I0301 15:50:06.591943 26779 net.cpp:157] Top shape: 1 3 (3)
I0301 15:50:06.591946 26779 net.cpp:157] Top shape: 1 3 (3)
I0301 15:50:06.591949 26779 net.cpp:165] Memory required for data: 14400052
I0301 15:50:06.591951 26779 layer_factory.hpp:77] Creating layer gt_boxes_input-data_2_split
I0301 15:50:06.591969 26779 net.cpp:100] Creating Layer gt_boxes_input-data_2_split
I0301 15:50:06.591972 26779 net.cpp:444] gt_boxes_input-data_2_split <- gt_boxes
I0301 15:50:06.591975 26779 net.cpp:418] gt_boxes_input-data_2_split -> gt_boxes_input-data_2_split_0
I0301 15:50:06.591990 26779 net.cpp:418] gt_boxes_input-data_2_split -> gt_boxes_input-data_2_split_1
I0301 15:50:06.592007 26779 net.cpp:150] Setting up gt_boxes_input-data_2_split
I0301 15:50:06.592010 26779 net.cpp:157] Top shape: 1 4 (4)
I0301 15:50:06.592013 26779 net.cpp:157] Top shape: 1 4 (4)
I0301 15:50:06.592015 26779 net.cpp:165] Memory required for data: 14400084
I0301 15:50:06.592017 26779 layer_factory.hpp:77] Creating layer my_conv1_1
I0301 15:50:06.592023 26779 net.cpp:100] Creating Layer my_conv1_1
I0301 15:50:06.592025 26779 net.cpp:444] my_conv1_1 <- data_input-data_0_split_0
I0301 15:50:06.592028 26779 net.cpp:418] my_conv1_1 -> my_conv1_1
I0301 15:50:06.860754 26779 net.cpp:150] Setting up my_conv1_1
I0301 15:50:06.860774 26779 net.cpp:157] Top shape: 1 64 600 1000 (38400000)
I0301 15:50:06.860776 26779 net.cpp:165] Memory required for data: 168000084
I0301 15:50:06.860800 26779 layer_factory.hpp:77] Creating layer relu1_1
I0301 15:50:06.860807 26779 net.cpp:100] Creating Layer relu1_1
I0301 15:50:06.860810 26779 net.cpp:444] relu1_1 <- my_conv1_1
I0301 15:50:06.860815 26779 net.cpp:405] relu1_1 -> my_conv1_1 (in-place)
I0301 15:50:06.860934 26779 net.cpp:150] Setting up relu1_1
I0301 15:50:06.860939 26779 net.cpp:157] Top shape: 1 64 600 1000 (38400000)
I0301 15:50:06.860942 26779 net.cpp:165] Memory required for data: 321600084
I0301 15:50:06.860944 26779 layer_factory.hpp:77] Creating layer conv1_2
I0301 15:50:06.860950 26779 net.cpp:100] Creating Layer conv1_2
I0301 15:50:06.860954 26779 net.cpp:444] conv1_2 <- my_conv1_1
I0301 15:50:06.860956 26779 net.cpp:418] conv1_2 -> conv1_2
I0301 15:50:06.862823 26779 net.cpp:150] Setting up conv1_2
I0301 15:50:06.862838 26779 net.cpp:157] Top shape: 1 64 600 1000 (38400000)
I0301 15:50:06.862840 26779 net.cpp:165] Memory required for data: 475200084
I0301 15:50:06.862861 26779 layer_factory.hpp:77] Creating layer relu1_2
I0301 15:50:06.862867 26779 net.cpp:100] Creating Layer relu1_2
I0301 15:50:06.862870 26779 net.cpp:444] relu1_2 <- conv1_2
I0301 15:50:06.862874 26779 net.cpp:405] relu1_2 -> conv1_2 (in-place)
I0301 15:50:06.862977 26779 net.cpp:150] Setting up relu1_2
I0301 15:50:06.862983 26779 net.cpp:157] Top shape: 1 64 600 1000 (38400000)
I0301 15:50:06.862987 26779 net.cpp:165] Memory required for data: 628800084
I0301 15:50:06.862988 26779 layer_factory.hpp:77] Creating layer pool1
I0301 15:50:06.862993 26779 net.cpp:100] Creating Layer pool1
I0301 15:50:06.862995 26779 net.cpp:444] pool1 <- conv1_2
I0301 15:50:06.862998 26779 net.cpp:418] pool1 -> pool1
I0301 15:50:06.863024 26779 net.cpp:150] Setting up pool1
I0301 15:50:06.863029 26779 net.cpp:157] Top shape: 1 64 300 500 (9600000)
I0301 15:50:06.863030 26779 net.cpp:165] Memory required for data: 667200084
I0301 15:50:06.863032 26779 layer_factory.hpp:77] Creating layer conv2_1
I0301 15:50:06.863039 26779 net.cpp:100] Creating Layer conv2_1
I0301 15:50:06.863041 26779 net.cpp:444] conv2_1 <- pool1
I0301 15:50:06.863044 26779 net.cpp:418] conv2_1 -> conv2_1
I0301 15:50:06.864348 26779 net.cpp:150] Setting up conv2_1
I0301 15:50:06.864359 26779 net.cpp:157] Top shape: 1 128 300 500 (19200000)
I0301 15:50:06.864362 26779 net.cpp:165] Memory required for data: 744000084
I0301 15:50:06.864367 26779 layer_factory.hpp:77] Creating layer relu2_1
I0301 15:50:06.864387 26779 net.cpp:100] Creating Layer relu2_1
I0301 15:50:06.864388 26779 net.cpp:444] relu2_1 <- conv2_1
I0301 15:50:06.864392 26779 net.cpp:405] relu2_1 -> conv2_1 (in-place)
I0301 15:50:06.864645 26779 net.cpp:150] Setting up relu2_1
I0301 15:50:06.864653 26779 net.cpp:157] Top shape: 1 128 300 500 (19200000)
I0301 15:50:06.864655 26779 net.cpp:165] Memory required for data: 820800084
I0301 15:50:06.864657 26779 layer_factory.hpp:77] Creating layer conv2_2
I0301 15:50:06.864662 26779 net.cpp:100] Creating Layer conv2_2
I0301 15:50:06.864665 26779 net.cpp:444] conv2_2 <- conv2_1
I0301 15:50:06.864682 26779 net.cpp:418] conv2_2 -> conv2_2
I0301 15:50:06.865387 26779 net.cpp:150] Setting up conv2_2
I0301 15:50:06.865396 26779 net.cpp:157] Top shape: 1 128 300 500 (19200000)
I0301 15:50:06.865397 26779 net.cpp:165] Memory required for data: 897600084
I0301 15:50:06.865402 26779 layer_factory.hpp:77] Creating layer relu2_2
I0301 15:50:06.865406 26779 net.cpp:100] Creating Layer relu2_2
I0301 15:50:06.865422 26779 net.cpp:444] relu2_2 <- conv2_2
I0301 15:50:06.865425 26779 net.cpp:405] relu2_2 -> conv2_2 (in-place)
I0301 15:50:06.865677 26779 net.cpp:150] Setting up relu2_2
I0301 15:50:06.865685 26779 net.cpp:157] Top shape: 1 128 300 500 (19200000)
I0301 15:50:06.865689 26779 net.cpp:165] Memory required for data: 974400084
I0301 15:50:06.865690 26779 layer_factory.hpp:77] Creating layer pool2
I0301 15:50:06.865694 26779 net.cpp:100] Creating Layer pool2
I0301 15:50:06.865697 26779 net.cpp:444] pool2 <- conv2_2
I0301 15:50:06.865715 26779 net.cpp:418] pool2 -> pool2
I0301 15:50:06.865751 26779 net.cpp:150] Setting up pool2
I0301 15:50:06.865756 26779 net.cpp:157] Top shape: 1 128 150 250 (4800000)
I0301 15:50:06.865757 26779 net.cpp:165] Memory required for data: 993600084
I0301 15:50:06.865759 26779 layer_factory.hpp:77] Creating layer conv3_1
I0301 15:50:06.865763 26779 net.cpp:100] Creating Layer conv3_1
I0301 15:50:06.865767 26779 net.cpp:444] conv3_1 <- pool2
I0301 15:50:06.865769 26779 net.cpp:418] conv3_1 -> conv3_1
I0301 15:50:06.867118 26779 net.cpp:150] Setting up conv3_1
I0301 15:50:06.867128 26779 net.cpp:157] Top shape: 1 256 150 250 (9600000)
I0301 15:50:06.867131 26779 net.cpp:165] Memory required for data: 1032000084
I0301 15:50:06.867138 26779 layer_factory.hpp:77] Creating layer relu3_1
I0301 15:50:06.867156 26779 net.cpp:100] Creating Layer relu3_1
I0301 15:50:06.867159 26779 net.cpp:444] relu3_1 <- conv3_1
I0301 15:50:06.867162 26779 net.cpp:405] relu3_1 -> conv3_1 (in-place)
I0301 15:50:06.867262 26779 net.cpp:150] Setting up relu3_1
I0301 15:50:06.867269 26779 net.cpp:157] Top shape: 1 256 150 250 (9600000)
I0301 15:50:06.867270 26779 net.cpp:165] Memory required for data: 1070400084
I0301 15:50:06.867272 26779 layer_factory.hpp:77] Creating layer conv3_2
I0301 15:50:06.867278 26779 net.cpp:100] Creating Layer conv3_2
I0301 15:50:06.867280 26779 net.cpp:444] conv3_2 <- conv3_1
I0301 15:50:06.867283 26779 net.cpp:418] conv3_2 -> conv3_2
I0301 15:50:06.868821 26779 net.cpp:150] Setting up conv3_2
I0301 15:50:06.868832 26779 net.cpp:157] Top shape: 1 256 150 250 (9600000)
I0301 15:50:06.868835 26779 net.cpp:165] Memory required for data: 1108800084
I0301 15:50:06.868840 26779 layer_factory.hpp:77] Creating layer relu3_2
I0301 15:50:06.868858 26779 net.cpp:100] Creating Layer relu3_2
I0301 15:50:06.868861 26779 net.cpp:444] relu3_2 <- conv3_2
I0301 15:50:06.868865 26779 net.cpp:405] relu3_2 -> conv3_2 (in-place)
I0301 15:50:06.868971 26779 net.cpp:150] Setting up relu3_2
I0301 15:50:06.868976 26779 net.cpp:157] Top shape: 1 256 150 250 (9600000)
I0301 15:50:06.868979 26779 net.cpp:165] Memory required for data: 1147200084
I0301 15:50:06.868981 26779 layer_factory.hpp:77] Creating layer conv3_3
I0301 15:50:06.868986 26779 net.cpp:100] Creating Layer conv3_3
I0301 15:50:06.868988 26779 net.cpp:444] conv3_3 <- conv3_2
I0301 15:50:06.868991 26779 net.cpp:418] conv3_3 -> conv3_3
I0301 15:50:06.870590 26779 net.cpp:150] Setting up conv3_3
I0301 15:50:06.870602 26779 net.cpp:157] Top shape: 1 256 150 250 (9600000)
I0301 15:50:06.870605 26779 net.cpp:165] Memory required for data: 1185600084
I0301 15:50:06.870610 26779 layer_factory.hpp:77] Creating layer relu3_3
I0301 15:50:06.870628 26779 net.cpp:100] Creating Layer relu3_3
I0301 15:50:06.870631 26779 net.cpp:444] relu3_3 <- conv3_3
I0301 15:50:06.870635 26779 net.cpp:405] relu3_3 -> conv3_3 (in-place)
I0301 15:50:06.870739 26779 net.cpp:150] Setting up relu3_3
I0301 15:50:06.870745 26779 net.cpp:157] Top shape: 1 256 150 250 (9600000)
I0301 15:50:06.870748 26779 net.cpp:165] Memory required for data: 1224000084
I0301 15:50:06.870749 26779 layer_factory.hpp:77] Creating layer pool3
I0301 15:50:06.870754 26779 net.cpp:100] Creating Layer pool3
I0301 15:50:06.870756 26779 net.cpp:444] pool3 <- conv3_3
I0301 15:50:06.870760 26779 net.cpp:418] pool3 -> pool3
I0301 15:50:06.870785 26779 net.cpp:150] Setting up pool3
I0301 15:50:06.870790 26779 net.cpp:157] Top shape: 1 256 75 125 (2400000)
I0301 15:50:06.870791 26779 net.cpp:165] Memory required for data: 1233600084
I0301 15:50:06.870793 26779 layer_factory.hpp:77] Creating layer conv4_1
I0301 15:50:06.870798 26779 net.cpp:100] Creating Layer conv4_1
I0301 15:50:06.870802 26779 net.cpp:444] conv4_1 <- pool3
I0301 15:50:06.870805 26779 net.cpp:418] conv4_1 -> conv4_1
I0301 15:50:06.874097 26779 net.cpp:150] Setting up conv4_1
I0301 15:50:06.874116 26779 net.cpp:157] Top shape: 1 512 75 125 (4800000)
I0301 15:50:06.874119 26779 net.cpp:165] Memory required for data: 1252800084
I0301 15:50:06.874140 26779 layer_factory.hpp:77] Creating layer relu4_1
I0301 15:50:06.874147 26779 net.cpp:100] Creating Layer relu4_1
I0301 15:50:06.874151 26779 net.cpp:444] relu4_1 <- conv4_1
I0301 15:50:06.874155 26779 net.cpp:405] relu4_1 -> conv4_1 (in-place)
I0301 15:50:06.874267 26779 net.cpp:150] Setting up relu4_1
I0301 15:50:06.874274 26779 net.cpp:157] Top shape: 1 512 75 125 (4800000)
I0301 15:50:06.874275 26779 net.cpp:165] Memory required for data: 1272000084
I0301 15:50:06.874277 26779 layer_factory.hpp:77] Creating layer conv4_2
I0301 15:50:06.874284 26779 net.cpp:100] Creating Layer conv4_2
I0301 15:50:06.874285 26779 net.cpp:444] conv4_2 <- conv4_1
I0301 15:50:06.874289 26779 net.cpp:418] conv4_2 -> conv4_2
I0301 15:50:06.878008 26779 net.cpp:150] Setting up conv4_2
I0301 15:50:06.878026 26779 net.cpp:157] Top shape: 1 512 75 125 (4800000)
I0301 15:50:06.878029 26779 net.cpp:165] Memory required for data: 1291200084
I0301 15:50:06.878051 26779 layer_factory.hpp:77] Creating layer relu4_2
I0301 15:50:06.878057 26779 net.cpp:100] Creating Layer relu4_2
I0301 15:50:06.878060 26779 net.cpp:444] relu4_2 <- conv4_2
I0301 15:50:06.878067 26779 net.cpp:405] relu4_2 -> conv4_2 (in-place)
I0301 15:50:06.878346 26779 net.cpp:150] Setting up relu4_2
I0301 15:50:06.878355 26779 net.cpp:157] Top shape: 1 512 75 125 (4800000)
I0301 15:50:06.878357 26779 net.cpp:165] Memory required for data: 1310400084
I0301 15:50:06.878360 26779 layer_factory.hpp:77] Creating layer conv4_3
I0301 15:50:06.878365 26779 net.cpp:100] Creating Layer conv4_3
I0301 15:50:06.878381 26779 net.cpp:444] conv4_3 <- conv4_2
I0301 15:50:06.878386 26779 net.cpp:418] conv4_3 -> conv4_3
I0301 15:50:06.881719 26779 net.cpp:150] Setting up conv4_3
I0301 15:50:06.881778 26779 net.cpp:157] Top shape: 1 512 75 125 (4800000)
I0301 15:50:06.881783 26779 net.cpp:165] Memory required for data: 1329600084
I0301 15:50:06.881791 26779 layer_factory.hpp:77] Creating layer relu4_3
I0301 15:50:06.881798 26779 net.cpp:100] Creating Layer relu4_3
I0301 15:50:06.881803 26779 net.cpp:444] relu4_3 <- conv4_3
I0301 15:50:06.881806 26779 net.cpp:405] relu4_3 -> conv4_3 (in-place)
I0301 15:50:06.882148 26779 net.cpp:150] Setting up relu4_3
I0301 15:50:06.882155 26779 net.cpp:157] Top shape: 1 512 75 125 (4800000)
I0301 15:50:06.882158 26779 net.cpp:165] Memory required for data: 1348800084
I0301 15:50:06.882159 26779 layer_factory.hpp:77] Creating layer pool4
I0301 15:50:06.882164 26779 net.cpp:100] Creating Layer pool4
I0301 15:50:06.882180 26779 net.cpp:444] pool4 <- conv4_3
I0301 15:50:06.882184 26779 net.cpp:418] pool4 -> pool4
I0301 15:50:06.882213 26779 net.cpp:150] Setting up pool4
I0301 15:50:06.882217 26779 net.cpp:157] Top shape: 1 512 38 63 (1225728)
I0301 15:50:06.882220 26779 net.cpp:165] Memory required for data: 1353702996
I0301 15:50:06.882221 26779 layer_factory.hpp:77] Creating layer conv5_1
I0301 15:50:06.882226 26779 net.cpp:100] Creating Layer conv5_1
I0301 15:50:06.882228 26779 net.cpp:444] conv5_1 <- pool4
I0301 15:50:06.882231 26779 net.cpp:418] conv5_1 -> conv5_1
I0301 15:50:06.885892 26779 net.cpp:150] Setting up conv5_1
I0301 15:50:06.885910 26779 net.cpp:157] Top shape: 1 512 38 63 (1225728)
I0301 15:50:06.885912 26779 net.cpp:165] Memory required for data: 1358605908
I0301 15:50:06.885933 26779 layer_factory.hpp:77] Creating layer relu5_1
I0301 15:50:06.885941 26779 net.cpp:100] Creating Layer relu5_1
I0301 15:50:06.885943 26779 net.cpp:444] relu5_1 <- conv5_1
I0301 15:50:06.885949 26779 net.cpp:405] relu5_1 -> conv5_1 (in-place)
I0301 15:50:06.886059 26779 net.cpp:150] Setting up relu5_1
I0301 15:50:06.886065 26779 net.cpp:157] Top shape: 1 512 38 63 (1225728)
I0301 15:50:06.886067 26779 net.cpp:165] Memory required for data: 1363508820
I0301 15:50:06.886070 26779 layer_factory.hpp:77] Creating layer conv5_2
I0301 15:50:06.886076 26779 net.cpp:100] Creating Layer conv5_2
I0301 15:50:06.886078 26779 net.cpp:444] conv5_2 <- conv5_1
I0301 15:50:06.886082 26779 net.cpp:418] conv5_2 -> conv5_2
I0301 15:50:06.889811 26779 net.cpp:150] Setting up conv5_2
I0301 15:50:06.889829 26779 net.cpp:157] Top shape: 1 512 38 63 (1225728)
I0301 15:50:06.889832 26779 net.cpp:165] Memory required for data: 1368411732
I0301 15:50:06.889853 26779 layer_factory.hpp:77] Creating layer relu5_2
I0301 15:50:06.889859 26779 net.cpp:100] Creating Layer relu5_2
I0301 15:50:06.889863 26779 net.cpp:444] relu5_2 <- conv5_2
I0301 15:50:06.889870 26779 net.cpp:405] relu5_2 -> conv5_2 (in-place)
I0301 15:50:06.889977 26779 net.cpp:150] Setting up relu5_2
I0301 15:50:06.889984 26779 net.cpp:157] Top shape: 1 512 38 63 (1225728)
I0301 15:50:06.889986 26779 net.cpp:165] Memory required for data: 1373314644
I0301 15:50:06.889988 26779 layer_factory.hpp:77] Creating layer conv5_3
I0301 15:50:06.889996 26779 net.cpp:100] Creating Layer conv5_3
I0301 15:50:06.889997 26779 net.cpp:444] conv5_3 <- conv5_2
I0301 15:50:06.890002 26779 net.cpp:418] conv5_3 -> conv5_3
I0301 15:50:06.893757 26779 net.cpp:150] Setting up conv5_3
I0301 15:50:06.893791 26779 net.cpp:157] Top shape: 1 512 38 63 (1225728)
I0301 15:50:06.893795 26779 net.cpp:165] Memory required for data: 1378217556
I0301 15:50:06.893801 26779 layer_factory.hpp:77] Creating layer relu5_3
I0301 15:50:06.893808 26779 net.cpp:100] Creating Layer relu5_3
I0301 15:50:06.893812 26779 net.cpp:444] relu5_3 <- conv5_3
I0301 15:50:06.893817 26779 net.cpp:405] relu5_3 -> conv5_3 (in-place)
I0301 15:50:06.893930 26779 net.cpp:150] Setting up relu5_3
I0301 15:50:06.893936 26779 net.cpp:157] Top shape: 1 512 38 63 (1225728)
I0301 15:50:06.893939 26779 net.cpp:165] Memory required for data: 1383120468
I0301 15:50:06.893940 26779 layer_factory.hpp:77] Creating layer conv5_3_relu5_3_0_split
I0301 15:50:06.893945 26779 net.cpp:100] Creating Layer conv5_3_relu5_3_0_split
I0301 15:50:06.893947 26779 net.cpp:444] conv5_3_relu5_3_0_split <- conv5_3
I0301 15:50:06.893951 26779 net.cpp:418] conv5_3_relu5_3_0_split -> conv5_3_relu5_3_0_split_0
I0301 15:50:06.893955 26779 net.cpp:418] conv5_3_relu5_3_0_split -> conv5_3_relu5_3_0_split_1
I0301 15:50:06.893983 26779 net.cpp:150] Setting up conv5_3_relu5_3_0_split
I0301 15:50:06.893987 26779 net.cpp:157] Top shape: 1 512 38 63 (1225728)
I0301 15:50:06.893990 26779 net.cpp:157] Top shape: 1 512 38 63 (1225728)
I0301 15:50:06.893992 26779 net.cpp:165] Memory required for data: 1392926292
I0301 15:50:06.893995 26779 layer_factory.hpp:77] Creating layer rpn_conv/3x3
I0301 15:50:06.894001 26779 net.cpp:100] Creating Layer rpn_conv/3x3
I0301 15:50:06.894004 26779 net.cpp:444] rpn_conv/3x3 <- conv5_3_relu5_3_0_split_0
I0301 15:50:06.894007 26779 net.cpp:418] rpn_conv/3x3 -> rpn/output
I0301 15:50:06.944049 26779 net.cpp:150] Setting up rpn_conv/3x3
I0301 15:50:06.944067 26779 net.cpp:157] Top shape: 1 512 38 63 (1225728)
I0301 15:50:06.944069 26779 net.cpp:165] Memory required for data: 1397829204
I0301 15:50:06.944077 26779 layer_factory.hpp:77] Creating layer rpn_relu/3x3
I0301 15:50:06.944097 26779 net.cpp:100] Creating Layer rpn_relu/3x3
I0301 15:50:06.944100 26779 net.cpp:444] rpn_relu/3x3 <- rpn/output
I0301 15:50:06.944105 26779 net.cpp:405] rpn_relu/3x3 -> rpn/output (in-place)
I0301 15:50:06.944218 26779 net.cpp:150] Setting up rpn_relu/3x3
I0301 15:50:06.944224 26779 net.cpp:157] Top shape: 1 512 38 63 (1225728)
I0301 15:50:06.944226 26779 net.cpp:165] Memory required for data: 1402732116
I0301 15:50:06.944228 26779 layer_factory.hpp:77] Creating layer rpn/output_rpn_relu/3x3_0_split
I0301 15:50:06.944232 26779 net.cpp:100] Creating Layer rpn/output_rpn_relu/3x3_0_split
I0301 15:50:06.944234 26779 net.cpp:444] rpn/output_rpn_relu/3x3_0_split <- rpn/output
I0301 15:50:06.944238 26779 net.cpp:418] rpn/output_rpn_relu/3x3_0_split -> rpn/output_rpn_relu/3x3_0_split_0
I0301 15:50:06.944242 26779 net.cpp:418] rpn/output_rpn_relu/3x3_0_split -> rpn/output_rpn_relu/3x3_0_split_1
I0301 15:50:06.944268 26779 net.cpp:150] Setting up rpn/output_rpn_relu/3x3_0_split
I0301 15:50:06.944272 26779 net.cpp:157] Top shape: 1 512 38 63 (1225728)
I0301 15:50:06.944275 26779 net.cpp:157] Top shape: 1 512 38 63 (1225728)
I0301 15:50:06.944278 26779 net.cpp:165] Memory required for data: 1412537940
I0301 15:50:06.944279 26779 layer_factory.hpp:77] Creating layer rpn_cls_score
I0301 15:50:06.944288 26779 net.cpp:100] Creating Layer rpn_cls_score
I0301 15:50:06.944290 26779 net.cpp:444] rpn_cls_score <- rpn/output_rpn_relu/3x3_0_split_0
I0301 15:50:06.944294 26779 net.cpp:418] rpn_cls_score -> rpn_cls_score
I0301 15:50:06.945312 26779 net.cpp:150] Setting up rpn_cls_score
I0301 15:50:06.945320 26779 net.cpp:157] Top shape: 1 18 38 63 (43092)
I0301 15:50:06.945323 26779 net.cpp:165] Memory required for data: 1412710308
I0301 15:50:06.945327 26779 layer_factory.hpp:77] Creating layer rpn_cls_score_rpn_cls_score_0_split
I0301 15:50:06.945332 26779 net.cpp:100] Creating Layer rpn_cls_score_rpn_cls_score_0_split
I0301 15:50:06.945348 26779 net.cpp:444] rpn_cls_score_rpn_cls_score_0_split <- rpn_cls_score
I0301 15:50:06.945353 26779 net.cpp:418] rpn_cls_score_rpn_cls_score_0_split -> rpn_cls_score_rpn_cls_score_0_split_0
I0301 15:50:06.945358 26779 net.cpp:418] rpn_cls_score_rpn_cls_score_0_split -> rpn_cls_score_rpn_cls_score_0_split_1
I0301 15:50:06.945384 26779 net.cpp:150] Setting up rpn_cls_score_rpn_cls_score_0_split
I0301 15:50:06.945389 26779 net.cpp:157] Top shape: 1 18 38 63 (43092)
I0301 15:50:06.945390 26779 net.cpp:157] Top shape: 1 18 38 63 (43092)
I0301 15:50:06.945392 26779 net.cpp:165] Memory required for data: 1413055044
I0301 15:50:06.945394 26779 layer_factory.hpp:77] Creating layer rpn_bbox_pred
I0301 15:50:06.945400 26779 net.cpp:100] Creating Layer rpn_bbox_pred
I0301 15:50:06.945402 26779 net.cpp:444] rpn_bbox_pred <- rpn/output_rpn_relu/3x3_0_split_1
I0301 15:50:06.945406 26779 net.cpp:418] rpn_bbox_pred -> rpn_bbox_pred
I0301 15:50:06.946472 26779 net.cpp:150] Setting up rpn_bbox_pred
I0301 15:50:06.946480 26779 net.cpp:157] Top shape: 1 36 38 63 (86184)
I0301 15:50:06.946483 26779 net.cpp:165] Memory required for data: 1413399780
I0301 15:50:06.946487 26779 layer_factory.hpp:77] Creating layer rpn_bbox_pred_rpn_bbox_pred_0_split
I0301 15:50:06.946491 26779 net.cpp:100] Creating Layer rpn_bbox_pred_rpn_bbox_pred_0_split
I0301 15:50:06.946507 26779 net.cpp:444] rpn_bbox_pred_rpn_bbox_pred_0_split <- rpn_bbox_pred
I0301 15:50:06.946511 26779 net.cpp:418] rpn_bbox_pred_rpn_bbox_pred_0_split -> rpn_bbox_pred_rpn_bbox_pred_0_split_0
I0301 15:50:06.946516 26779 net.cpp:418] rpn_bbox_pred_rpn_bbox_pred_0_split -> rpn_bbox_pred_rpn_bbox_pred_0_split_1
I0301 15:50:06.946540 26779 net.cpp:150] Setting up rpn_bbox_pred_rpn_bbox_pred_0_split
I0301 15:50:06.946544 26779 net.cpp:157] Top shape: 1 36 38 63 (86184)
I0301 15:50:06.946547 26779 net.cpp:157] Top shape: 1 36 38 63 (86184)
I0301 15:50:06.946549 26779 net.cpp:165] Memory required for data: 1414089252
I0301 15:50:06.946552 26779 layer_factory.hpp:77] Creating layer rpn_cls_score_reshape
I0301 15:50:06.946557 26779 net.cpp:100] Creating Layer rpn_cls_score_reshape
I0301 15:50:06.946558 26779 net.cpp:444] rpn_cls_score_reshape <- rpn_cls_score_rpn_cls_score_0_split_0
I0301 15:50:06.946562 26779 net.cpp:418] rpn_cls_score_reshape -> rpn_cls_score_reshape
I0301 15:50:06.946578 26779 net.cpp:150] Setting up rpn_cls_score_reshape
I0301 15:50:06.946583 26779 net.cpp:157] Top shape: 1 2 342 63 (43092)
I0301 15:50:06.946584 26779 net.cpp:165] Memory required for data: 1414261620
I0301 15:50:06.946586 26779 layer_factory.hpp:77] Creating layer rpn_cls_score_reshape_rpn_cls_score_reshape_0_split
I0301 15:50:06.946589 26779 net.cpp:100] Creating Layer rpn_cls_score_reshape_rpn_cls_score_reshape_0_split
I0301 15:50:06.946591 26779 net.cpp:444] rpn_cls_score_reshape_rpn_cls_score_reshape_0_split <- rpn_cls_score_reshape
I0301 15:50:06.946594 26779 net.cpp:418] rpn_cls_score_reshape_rpn_cls_score_reshape_0_split -> rpn_cls_score_reshape_rpn_cls_score_reshape_0_split_0
I0301 15:50:06.946599 26779 net.cpp:418] rpn_cls_score_reshape_rpn_cls_score_reshape_0_split -> rpn_cls_score_reshape_rpn_cls_score_reshape_0_split_1
I0301 15:50:06.946619 26779 net.cpp:150] Setting up rpn_cls_score_reshape_rpn_cls_score_reshape_0_split
I0301 15:50:06.946624 26779 net.cpp:157] Top shape: 1 2 342 63 (43092)
I0301 15:50:06.946625 26779 net.cpp:157] Top shape: 1 2 342 63 (43092)
I0301 15:50:06.946627 26779 net.cpp:165] Memory required for data: 1414606356
I0301 15:50:06.946630 26779 layer_factory.hpp:77] Creating layer rpn-data
I0301 15:50:06.946952 26779 net.cpp:100] Creating Layer rpn-data
I0301 15:50:06.946960 26779 net.cpp:444] rpn-data <- rpn_cls_score_rpn_cls_score_0_split_1
I0301 15:50:06.946965 26779 net.cpp:444] rpn-data <- gt_boxes_input-data_2_split_0
I0301 15:50:06.946969 26779 net.cpp:444] rpn-data <- im_info_input-data_1_split_0
I0301 15:50:06.946971 26779 net.cpp:444] rpn-data <- data_input-data_0_split_1
I0301 15:50:06.946975 26779 net.cpp:418] rpn-data -> rpn_labels
I0301 15:50:06.946979 26779 net.cpp:418] rpn-data -> rpn_bbox_targets
I0301 15:50:06.946985 26779 net.cpp:418] rpn-data -> rpn_bbox_inside_weights
I0301 15:50:06.946988 26779 net.cpp:418] rpn-data -> rpn_bbox_outside_weights
I0301 15:50:06.947481 26779 net.cpp:150] Setting up rpn-data
I0301 15:50:06.947490 26779 net.cpp:157] Top shape: 1 1 342 63 (21546)
I0301 15:50:06.947494 26779 net.cpp:157] Top shape: 1 36 38 63 (86184)
I0301 15:50:06.947496 26779 net.cpp:157] Top shape: 1 36 38 63 (86184)
I0301 15:50:06.947499 26779 net.cpp:157] Top shape: 1 36 38 63 (86184)
I0301 15:50:06.947500 26779 net.cpp:165] Memory required for data: 1415726748
I0301 15:50:06.947516 26779 layer_factory.hpp:77] Creating layer rpn_loss_cls
I0301 15:50:06.947522 26779 net.cpp:100] Creating Layer rpn_loss_cls
I0301 15:50:06.947525 26779 net.cpp:444] rpn_loss_cls <- rpn_cls_score_reshape_rpn_cls_score_reshape_0_split_0
I0301 15:50:06.947528 26779 net.cpp:444] rpn_loss_cls <- rpn_labels
…
I0301 15:50:06.948168 26779 net.cpp:157] Top shape: (1)
I0301 15:50:06.948169 26779 net.cpp:160]     with loss weight 1
I0301 15:50:06.948171 26779 net.cpp:165] Memory required for data: 1415726756
I0301 15:50:06.948173 26779 layer_factory.hpp:77] Creating layer rpn_cls_prob
I0301 15:50:06.948179 26779 net.cpp:100] Creating Layer rpn_cls_prob
I0301 15:50:06.948194 26779 net.cpp:444] rpn_cls_prob <- rpn_cls_score_reshape_rpn_cls_score_reshape_0_split_1
I0301 15:50:06.948197 26779 net.cpp:418] rpn_cls_prob -> rpn_cls_prob
I0301 15:50:06.948549 26779 net.cpp:150] Setting up rpn_cls_prob
I0301 15:50:06.948557 26779 net.cpp:157] Top shape: 1 2 342 63 (43092)
I0301 15:50:06.948559 26779 net.cpp:165] Memory required for data: 1415899124
I0301 15:50:06.948561 26779 layer_factory.hpp:77] Creating layer rpn_cls_prob_reshape
I0301 15:50:06.948566 26779 net.cpp:100] Creating Layer rpn_cls_prob_reshape
I0301 15:50:06.948582 26779 net.cpp:444] rpn_cls_prob_reshape <- rpn_cls_prob
I0301 15:50:06.948586 26779 net.cpp:418] rpn_cls_prob_reshape -> rpn_cls_prob_reshape
I0301 15:50:06.948604 26779 net.cpp:150] Setting up rpn_cls_prob_reshape
I0301 15:50:06.948608 26779 net.cpp:157] Top shape: 1 18 38 63 (43092)
I0301 15:50:06.948611 26779 net.cpp:165] Memory required for data: 1416071492
I0301 15:50:06.948612 26779 layer_factory.hpp:77] Creating layer proposal
I0301 15:50:06.949195 26779 net.cpp:100] Creating Layer proposal
I0301 15:50:06.949203 26779 net.cpp:444] proposal <- rpn_cls_prob_reshape
I0301 15:50:06.949208 26779 net.cpp:444] proposal <- rpn_bbox_pred_rpn_bbox_pred_0_split_1
I0301 15:50:06.949210 26779 net.cpp:444] proposal <- im_info_input-data_1_split_1
I0301 15:50:06.949213 26779 net.cpp:418] proposal -> rpn_rois
I0301 15:50:06.949625 26779 net.cpp:150] Setting up proposal
I0301 15:50:06.949633 26779 net.cpp:157] Top shape: 1 5 (5)
I0301 15:50:06.949636 26779 net.cpp:165] Memory required for data: 1416071512
I0301 15:50:06.949638 26779 layer_factory.hpp:77] Creating layer roi-data
I0301 15:50:06.949785 26779 net.cpp:100] Creating Layer roi-data
I0301 15:50:06.949792 26779 net.cpp:444] roi-data <- rpn_rois
I0301 15:50:06.949796 26779 net.cpp:444] roi-data <- gt_boxes_input-data_2_split_1
I0301 15:50:06.949800 26779 net.cpp:418] roi-data -> rois
I0301 15:50:06.949805 26779 net.cpp:418] roi-data -> labels
I0301 15:50:06.949822 26779 net.cpp:418] roi-data -> bbox_targets
I0301 15:50:06.949826 26779 net.cpp:418] roi-data -> bbox_inside_weights
I0301 15:50:06.949831 26779 net.cpp:418] roi-data -> bbox_outside_weights
I0301 15:50:06.950100 26779 net.cpp:150] Setting up roi-data
I0301 15:50:06.950109 26779 net.cpp:157] Top shape: 1 5 (5)
I0301 15:50:06.950111 26779 net.cpp:157] Top shape: 1 1 (1)
I0301 15:50:06.950114 26779 net.cpp:157] Top shape: 1 8 (8)
I0301 15:50:06.950115 26779 net.cpp:157] Top shape: 1 8 (8)
I0301 15:50:06.950119 26779 net.cpp:157] Top shape: 1 8 (8)
I0301 15:50:06.950119 26779 net.cpp:165] Memory required for data: 1416071632
I0301 15:50:06.950136 26779 layer_factory.hpp:77] Creating layer roi_pool5
I0301 15:50:06.950145 26779 net.cpp:100] Creating Layer roi_pool5
I0301 15:50:06.950148 26779 net.cpp:444] roi_pool5 <- conv5_3_relu5_3_0_split_1
I0301 15:50:06.950152 26779 net.cpp:444] roi_pool5 <- rois
I0301 15:50:06.950156 26779 net.cpp:418] roi_pool5 -> pool5
I0301 15:50:06.950161 26779 roi_pooling_layer.cpp:25] Spatial scale: 0.0625
I0301 15:50:06.950215 26779 net.cpp:150] Setting up roi_pool5
I0301 15:50:06.950220 26779 net.cpp:157] Top shape: 1 512 7 7 (25088)
I0301 15:50:06.950222 26779 net.cpp:165] Memory required for data: 1416171984
I0301 15:50:06.950224 26779 layer_factory.hpp:77] Creating layer fc6
I0301 15:50:06.950232 26779 net.cpp:100] Creating Layer fc6
I0301 15:50:06.950234 26779 net.cpp:444] fc6 <- pool5
I0301 15:50:06.950237 26779 net.cpp:418] fc6 -> fc6
I0301 15:50:07.071420 26779 net.cpp:150] Setting up fc6
I0301 15:50:07.071444 26779 net.cpp:157] Top shape: 1 4096 (4096)
I0301 15:50:07.071446 26779 net.cpp:165] Memory required for data: 1416188368
I0301 15:50:07.071472 26779 layer_factory.hpp:77] Creating layer relu6
I0301 15:50:07.071480 26779 net.cpp:100] Creating Layer relu6
I0301 15:50:07.071485 26779 net.cpp:444] relu6 <- fc6
I0301 15:50:07.071488 26779 net.cpp:405] relu6 -> fc6 (in-place)
I0301 15:50:07.071643 26779 net.cpp:150] Setting up relu6
I0301 15:50:07.071650 26779 net.cpp:157] Top shape: 1 4096 (4096)
I0301 15:50:07.071652 26779 net.cpp:165] Memory required for data: 1416204752
I0301 15:50:07.071655 26779 layer_factory.hpp:77] Creating layer drop6
I0301 15:50:07.071660 26779 net.cpp:100] Creating Layer drop6
I0301 15:50:07.071661 26779 net.cpp:444] drop6 <- fc6
I0301 15:50:07.071665 26779 net.cpp:405] drop6 -> fc6 (in-place)
I0301 15:50:07.071683 26779 net.cpp:150] Setting up drop6
I0301 15:50:07.071686 26779 net.cpp:157] Top shape: 1 4096 (4096)
I0301 15:50:07.071688 26779 net.cpp:165] Memory required for data: 1416221136
I0301 15:50:07.071691 26779 layer_factory.hpp:77] Creating layer fc7
I0301 15:50:07.071694 26779 net.cpp:100] Creating Layer fc7
I0301 15:50:07.071697 26779 net.cpp:444] fc7 <- fc6
I0301 15:50:07.071701 26779 net.cpp:418] fc7 -> fc7
I0301 15:50:07.091766 26779 net.cpp:150] Setting up fc7
I0301 15:50:07.091789 26779 net.cpp:157] Top shape: 1 4096 (4096)
I0301 15:50:07.091792 26779 net.cpp:165] Memory required for data: 1416237520
I0301 15:50:07.091814 26779 layer_factory.hpp:77] Creating layer relu7
I0301 15:50:07.091822 26779 net.cpp:100] Creating Layer relu7
I0301 15:50:07.091826 26779 net.cpp:444] relu7 <- fc7
I0301 15:50:07.091830 26779 net.cpp:405] relu7 -> fc7 (in-place)
I0301 15:50:07.091980 26779 net.cpp:150] Setting up relu7
I0301 15:50:07.091998 26779 net.cpp:157] Top shape: 1 4096 (4096)
I0301 15:50:07.092001 26779 net.cpp:165] Memory required for data: 1416253904
I0301 15:50:07.092003 26779 layer_factory.hpp:77] Creating layer drop7
I0301 15:50:07.092008 26779 net.cpp:100] Creating Layer drop7
I0301 15:50:07.092010 26779 net.cpp:444] drop7 <- fc7
I0301 15:50:07.092027 26779 net.cpp:405] drop7 -> fc7 (in-place)
I0301 15:50:07.092046 26779 net.cpp:150] Setting up drop7
I0301 15:50:07.092048 26779 net.cpp:157] Top shape: 1 4096 (4096)
I0301 15:50:07.092051 26779 net.cpp:165] Memory required for data: 1416270288
I0301 15:50:07.092052 26779 layer_factory.hpp:77] Creating layer fc7_drop7_0_split
I0301 15:50:07.092056 26779 net.cpp:100] Creating Layer fc7_drop7_0_split
I0301 15:50:07.092058 26779 net.cpp:444] fc7_drop7_0_split <- fc7
I0301 15:50:07.092062 26779 net.cpp:418] fc7_drop7_0_split -> fc7_drop7_0_split_0
I0301 15:50:07.092067 26779 net.cpp:418] fc7_drop7_0_split -> fc7_drop7_0_split_1
I0301 15:50:07.092089 26779 net.cpp:150] Setting up fc7_drop7_0_split
I0301 15:50:07.092093 26779 net.cpp:157] Top shape: 1 4096 (4096)
I0301 15:50:07.092095 26779 net.cpp:157] Top shape: 1 4096 (4096)
I0301 15:50:07.092097 26779 net.cpp:165] Memory required for data: 1416303056
I0301 15:50:07.092099 26779 layer_factory.hpp:77] Creating layer my_cls_score
I0301 15:50:07.092104 26779 net.cpp:100] Creating Layer my_cls_score
I0301 15:50:07.092108 26779 net.cpp:444] my_cls_score <- fc7_drop7_0_split_0
I0301 15:50:07.092110 26779 net.cpp:418] my_cls_score -> my_cls_score
I0301 15:50:07.092355 26779 net.cpp:150] Setting up my_cls_score
I0301 15:50:07.092360 26779 net.cpp:157] Top shape: 1 2 (2)
I0301 15:50:07.092362 26779 net.cpp:165] Memory required for data: 1416303064
I0301 15:50:07.092366 26779 layer_factory.hpp:77] Creating layer my_bbox_pred
I0301 15:50:07.092370 26779 net.cpp:100] Creating Layer my_bbox_pred
I0301 15:50:07.092371 26779 net.cpp:444] my_bbox_pred <- fc7_drop7_0_split_1
I0301 15:50:07.092391 26779 net.cpp:418] my_bbox_pred -> my_bbox_pred
I0301 15:50:07.093133 26779 net.cpp:150] Setting up my_bbox_pred
I0301 15:50:07.093138 26779 net.cpp:157] Top shape: 1 8 (8)
I0301 15:50:07.093140 26779 net.cpp:165] Memory required for data: 1416303096
I0301 15:50:07.093144 26779 layer_factory.hpp:77] Creating layer loss_cls
I0301 15:50:07.093148 26779 net.cpp:100] Creating Layer loss_cls
I0301 15:50:07.093150 26779 net.cpp:444] loss_cls <- my_cls_score
I0301 15:50:07.093168 26779 net.cpp:444] loss_cls <- labels
I0301 15:50:07.093170 26779 net.cpp:418] loss_cls -> loss_cls
…
